…
her_ckpt='', kd_loss_weight=1.0, ori_loss_weight=1.0, teacher_module='', student_module='', kd_loss_kwargs=None, dbb=False, dyrep=False, dyrep_adjust_interval=10, dyrep_max_adjust_epochs=100, dyrep_recal_bn_iters=20, dyrep_recal_bn_every_epoch=False, edgenn_config='', opt_betas=None, exp_dir='experiments/efficient_vmamba_small', distributed=True, device='cuda:0', world_size=16, rank=0)
24-03-02 07:33:53 INFO Model timm_efficient_vssm_small created, params: 11.274 M, FLOPs: 0.000 G
24-03-02 07:33:54 INFO DistributedDataParallel(
  (module): EfficientVSSM(
    (patch_embed): Sequential(
      (0): Conv2d(3, 64, kernel_size=(4, 4), stride=(4, 4))
      (1): Permute()
      (2): LayerNorm((64,), eps=1e-05, elementwise_affine=True)
    )
    (layers): ModuleList(
      (0): Sequential(
        (blocks): Sequential(
          (0): VSSBlock(
            (norm): LayerNorm((64,), eps=1e-05, elementwise_affine=True)
            (op): SS2D(
              (out_norm): LayerNorm((128,), eps=1e-05, elementwise_affine=True)
              (in_proj): Linear(in_features=64, out_features=256, bias=False)
              (act): SiLU()
              (conv2d): Conv2d(128, 128, kernel_size=(3, 3), stride=(1, 1), padding=(1, 1), groups=128)
              (out_proj): Linear(in_features=128, out_features=64, bias=False)
              (dropout): Identity()
            )
            (conv_branch): Sequential(
              (0): Conv2d(64, 64, kernel_size=(3, 3), stride=(1, 1), padding=(1, 1), groups=64)
              (1): BatchNorm2d(64, eps=1e-05, momentum=0.1, affine=True, track_running_stats=True)
              (2): GELU(approximate='none')
              (3): Conv2d(64, 64, kernel_size=(1, 1), stride=(1, 1))
            )
            (se): BiAttn(
              (norm): LayerNorm((64,), eps=1e-05, elementwise_affine=True)
              (global_reduce): Linear(in_features=64, out_features=8, bias=True)
              (act_fn): GELU(approximate='none')
              (channel_select): Linear(in_features=8, out_features=64, bias=True)
              (gate_fn): Sigmoid()
            )
            (drop_path): timm.DropPath(0.0)
          )
          (1): VSSBlock(
            (norm): LayerNorm((64,), eps=1e-05, elementwise_affine=True)
            (op): SS2D(
              (out_norm): LayerNorm((128,), eps=1e-05, elementwise_affine=True)
              (in_proj): Linear(in_features=64, out_features=256, bias=False)
              (act): SiLU()
              (conv2d): Conv2d(128, 128, kernel_size=(3, 3), stride=(1, 1), padding=(1, 1), groups=128)
              (out_proj): Linear(in_features=128, out_features=64, bias=False)
              (dropout): Identity()
            )
            (conv_branch): Sequential(
              (0): Conv2d(64, 64, kernel_size=(3, 3), stride=(1, 1), padding=(1, 1), groups=64)
              (1): BatchNorm2d(64, eps=1e-05, momentum=0.1, affine=True, track_running_stats=True)
              (2): GELU(approximate='none')
              (3): Conv2d(64, 64, kernel_size=(1, 1), stride=(1, 1))
            )
            (se): BiAttn(
              (norm): LayerNorm((64,), eps=1e-05, elementwise_affine=True)
              (global_reduce): Linear(in_features=64, out_features=8, bias=True)
              (act_fn): GELU(approximate='none')
              (channel_select): Linear(in_features=8, out_features=64, bias=True)
              (gate_fn): Sigmoid()
            )
            (drop_path): timm.DropPath(0.011111111380159855)
          )
        )
        (downsample): PatchMerging2D(
          (reduction): Linear(in_features=256, out_features=128, bias=False)
          (norm): LayerNorm((256,), eps=1e-05, elementwise_affine=True)
        )
      )
      (1): Sequential(
        (blocks): Sequential(
          (0): VSSBlock(
            (norm): LayerNorm((128,), eps=1e-05, elementwise_affine=True)
            (op): SS2D(
              (out_norm): LayerNorm((256,), eps=1e-05, elementwise_affine=True)
              (in_proj): Linear(in_features=128, out_features=512, bias=False)
              (act): SiLU()
              (conv2d): Conv2d(256, 256, kernel_size=(3, 3), stride=(1, 1), padding=(1, 1), groups=256)
              (out_proj): Linear(in_features=256, out_features=128, bias=False)
              (dropout): Identity()
            )
            (conv_branch): Sequential(
              (0): Conv2d(128, 128, kernel_size=(3, 3), stride=(1, 1), padding=(1, 1), groups=128)
              (1): BatchNorm2d(128, eps=1e-05, momentum=0.1, affine=True, track_running_stats=True)
              (2): GELU(approximate='none')
              (3): Conv2d(128, 128, kernel_size=(1, 1), stride=(1, 1))
            )
            (se): BiAttn(
              (norm): LayerNorm((128,), eps=1e-05, elementwise_affine=True)
              (global_reduce): Linear(in_features=128, out_features=16, bias=True)
              (act_fn): GELU(approximate='none')
              (channel_select): Linear(in_features=16, out_features=128, bias=True)
              (gate_fn): Sigmoid()
            )
            (drop_path): timm.DropPath(0.02222222276031971)
          )
          (1): VSSBlock(
            (norm): LayerNorm((128,), eps=1e-05, elementwise_affine=True)
            (op): SS2D(
              (out_norm): LayerNorm((256,), eps=1e-05, elementwise_affine=True)
              (in_proj): Linear(in_features=128, out_features=512, bias=False)
              (act): SiLU()
              (conv2d): Conv2d(256, 256, kernel_size=(3, 3), stride=(1, 1), padding=(1, 1), groups=256)
              (out_proj): Linear(in_features=256, out_features=128, bias=False)
              (dropout): Identity()
            )
            (conv_branch): Sequential(
              (0): Conv2d(128, 128, kernel_size=(3, 3), stride=(1, 1), padding=(1, 1), groups=128)
              (1): BatchNorm2d(128, eps=1e-05, momentum=0.1, affine=True, track_running_stats=True)
              (2): GELU(approximate='none')
              (3): Conv2d(128, 128, kernel_size=(1, 1), stride=(1, 1))
            )
            (se): BiAttn(
              (norm): LayerNorm((128,), eps=1e-05, elementwise_affine=True)
              (global_reduce): Linear(in_features=128, out_features=16, bias=True)
              (act_fn): GELU(approximate='none')
              (channel_select): Linear(in_features=16, out_features=128, bias=True)
              (gate_fn): Sigmoid()
            )
            (drop_path): timm.DropPath(0.03333333507180214)
          )
        )
        (downsample): PatchMerging2D(
          (reduction): Linear(in_features=512, out_features=256, bias=False)
          (norm): LayerNorm((512,), eps=1e-05, elementwise_affine=True)
        )
      )
      (2): Sequential(
        (0): Permute()
        (1): InvertedResidual(
          (conv_pw): Sequential(
            (0): Conv2d(256, 1024, kernel_size=(1, 1), stride=(1, 1), bias=False)
            (1): BatchNorm2d(1024, eps=1e-05, momentum=0.1, affine=True, track_running_stats=True)
            (2): ReLU(inplace=True)
          )
          (conv_dw): Sequential(
            (0): Conv2d(1024, 1024, kernel_size=(3, 3), stride=(1, 1), padding=(1, 1), groups=1024, bias=False)
            (1): BatchNorm2d(1024, eps=1e-05, momentum=0.1, affine=True, track_running_stats=True)
            (2): ReLU(inplace=True)
          )
          (se): SqueezeExcite(
            (avgp): AdaptiveAvgPool2d(output_size=1)
            (conv_reduce): Conv2d(1024, 128, kernel_size=(1, 1), stride=(1, 1))
            (act_fn): ReLU(inplace=True)
            (conv_expand): Conv2d(128, 1024, kernel_size=(1, 1), stride=(1, 1))
            (gate_fn): Sigmoid()
          )
          (conv_pw2): Sequential(
            (0): Conv2d(1024, 256, kernel_size=(1, 1), stride=(1, 1), bias=False)
            (1): BatchNorm2d(256, eps=1e-05, momentum=0.1, affine=True, track_running_stats=True)
          )
        )
        (2): InvertedResidual(
          (conv_pw): Sequential(
            (0): Conv2d(256, 1024, kernel_size=(1, 1), stride=(1, 1), bias=False)
            (1): BatchNorm2d(1024, eps=1e-05, momentum=0.1, affine=True, track_running_stats=True)
            (2): ReLU(inplace=True)
          )
          (conv_dw): Sequential(
            (0): Conv2d(1024, 1024, kernel_size=(3, 3), stride=(1, 1), padding=(1, 1), groups=1024, bias=False)
            (1): BatchNorm2d(1024, eps=1e-05, momentum=0.1, affine=True, track_running_stats=True)
            (2): ReLU(inplace=True)
          )
          (se): SqueezeExcite(
            (avgp): AdaptiveAvgPool2d(output_size=1)
            (conv_reduce): Conv2d(1024, 128, kernel_size=(1, 1), stride=(1, 1))
            (act_fn): ReLU(inplace=True)
            (conv_expand): Conv2d(128, 1024, kernel_size=(1, 1), stride=(1, 1))
            (gate_fn): Sigmoid()
          )
          (conv_pw2): Sequential(
            (0): Conv2d(1024, 256, kernel_size=(1, 1), stride=(1, 1), bias=False)
            (1): BatchNorm2d(256, eps=1e-05, momentum=0.1, affine=True, track_running_stats=True)
          )
        )
        (3): InvertedResidual(
          (conv_pw): Sequential(
            (0): Conv2d(256, 1024, kernel_size=(1, 1), stride=(1, 1), bias=False)
            (1): BatchNorm2d(1024, eps=1e-05, momentum=0.1, affine=True, track_running_stats=True)
            (2): ReLU(inplace=True)
          )
          (conv_dw): Sequential(
            (0): Conv2d(1024, 1024, kernel_size=(3, 3), stride=(1, 1), padding=(1, 1), groups=1024, bias=False)
            (1): BatchNorm2d(1024, eps=1e-05, momentum=0.1, affine=True, track_running_stats=True)
            (2): ReLU(inplace=True)
          )
          (se): SqueezeExcite(
            (avgp): AdaptiveAvgPool2d(output_size=1)
            (conv_reduce): Conv2d(1024, 128, kernel_size=(1, 1), stride=(1, 1))
            (act_fn): ReLU(inplace=True)
            (conv_expand): Conv2d(128, 1024, kernel_size=(1, 1), stride=(1, 1))
            (gate_fn): Sigmoid()
          )
          (conv_pw2): Sequential(
            (0): Conv2d(1024, 256, kernel_size=(1, 1), stride=(1, 1), bias=False)
            (1): BatchNorm2d(256, eps=1e-05, momentum=0.1, affine=True, track_running_stats=True)
          )
        )
        (4): InvertedResidual(
          (conv_pw): Sequential(
            (0): Conv2d(256, 1024, kernel_size=(1, 1), stride=(1, 1), bias=False)
            (1): BatchNorm2d(1024, eps=1e-05, momentum=0.1, affine=True, track_running_stats=True)
            (2): ReLU(inplace=True)
          )
          (conv_dw): Sequential(
            (0): Conv2d(1024, 1024, kernel_size=(3, 3), stride=(1, 1), padding=(1, 1), groups=1024, bias=False)
            (1): BatchNorm2d(1024, eps=1e-05, momentum=0.1, affine=True, track_running_stats=True)
            (2): ReLU(inplace=True)
          )
          (se): SqueezeExcite(
            (avgp): AdaptiveAvgPool2d(output_size=1)
            (conv_reduce): Conv2d(1024, 128, kernel_size=(1, 1), stride=(1, 1))
            (act_fn): ReLU(inplace=True)
            (conv_expand): Conv2d(128, 1024, kernel_size=(1, 1), stride=(1, 1))
            (gate_fn): Sigmoid()
          )
          (conv_pw2): Sequential(
            (0): Conv2d(1024, 256, kernel_size=(1, 1), stride=(1, 1), bias=False)
            (1): BatchNorm2d(256, eps=1e-05, momentum=0.1, affine=True, track_running_stats=True)
          )
        )
        (5): Permute()
        (6): PatchMerging2D(
          (reduction): Linear(in_features=1024, out_features=512, bias=False)
          (norm): LayerNorm((1024,), eps=1e-05, elementwise_affine=True)
        )
      )
      (3): Sequential(
        (0): Permute()
        (1): InvertedResidual(
          (conv_pw): Sequential(
            (0): Conv2d(512, 2048, kernel_size=(1, 1), stride=(1, 1), bias=False)
            (1): BatchNorm2d(2048, eps=1e-05, momentum=0.1, affine=True, track_running_stats=True)
            (2): ReLU(inplace=True)
          )
          (conv_dw): Sequential(
            (0): Conv2d(2048, 2048, kernel_size=(3, 3), stride=(1, 1), padding=(1, 1), groups=2048, bias=False)
            (1): BatchNorm2d(2048, eps=1e-05, momentum=0.1, affine=True, track_running_stats=True)
            (2): ReLU(inplace=True)
          )
          (se): SqueezeExcite(
            (avgp): AdaptiveAvgPool2d(output_size=1)
            (conv_reduce): Conv2d(2048, 256, kernel_size=(1, 1), stride=(1, 1))
            (act_fn): ReLU(inplace=True)
            (conv_expand): Conv2d(256, 2048, kernel_size=(1, 1), stride=(1, 1))
            (gate_fn): Sigmoid()
          )
          (conv_pw2): Sequential(
            (0): Conv2d(2048, 512, kernel_size=(1, 1), stride=(1, 1), bias=False)
            (1): BatchNorm2d(512, eps=1e-05, momentum=0.1, affine=True, track_running_stats=True)
          )
        )
        (2): InvertedResidual(
          (conv_pw): Sequential(
            (0): Conv2d(512, 2048, kernel_size=(1, 1), stride=(1, 1), bias=False)
            (1): BatchNorm2d(2048, eps=1e-05, momentum=0.1, affine=True, track_running_stats=True)
            (2): ReLU(inplace=True)
          )
          (conv_dw): Sequential(
            (0): Conv2d(2048, 2048, kernel_size=(3, 3), stride=(1, 1), padding=(1, 1), groups=2048, bias=False)
            (1): BatchNorm2d(2048, eps=1e-05, momentum=0.1, affine=True, track_running_stats=True)
            (2): ReLU(inplace=True)
          )
          (se): SqueezeExcite(
            (avgp): AdaptiveAvgPool2d(output_size=1)
            (conv_reduce): Conv2d(2048, 256, kernel_size=(1, 1), stride=(1, 1))
            (act_fn): ReLU(inplace=True)
            (conv_expand): Conv2d(256, 2048, kernel_size=(1, 1), stride=(1, 1))
            (gate_fn): Sigmoid()
          )
          (conv_pw2): Sequential(
            (0): Conv2d(2048, 512, kernel_size=(1, 1), stride=(1, 1), bias=False)
            (1): BatchNorm2d(512, eps=1e-05, momentum=0.1, affine=True, track_running_stats=True)
          )
        )
        (3): Permute()
        (4): Identity()
      )
    )
    (classifier): Sequential(
      (norm): LayerNorm((512,), eps=1e-05, elementwise_affine=True)
      (permute): Permute()
      (avgpool): AdaptiveAvgPool2d(output_size=1)
      (flatten): Flatten(start_dim=1, end_dim=-1)
      (head): Linear(in_features=512, out_features=1000, bias=True)
    )
  )
)
24-03-02 07:34:17 INFO Train: 0 [   0/625] Loss: 6.917 (6.917) LR: 1.000e-07 Mem: 2789 Util: 80% Time: 22.90s (22.90s) Data: 16.87s
24-03-02 07:34:17 INFO Reducer buckets have been rebuilt in this iteration.
24-03-02 07:34:31 INFO Train: 0 [  50/625] Loss: 6.919 (6.917) LR: 1.000e-07 Mem: 11669 Util: 73% Time: 0.23s (0.72s) Data: 0.02s
24-03-02 07:34:48 INFO Train: 0 [ 100/625] Loss: 6.914 (6.916) LR: 1.000e-07 Mem: 11669 Util: 94% Time: 0.33s (0.53s) Data: 0.02s
…
