…
eacher_ckpt='', kd_loss_weight=1.0, ori_loss_weight=1.0, teacher_module='', student_module='', kd_loss_kwargs=None, dbb=False, dyrep=False, dyrep_adjust_interval=10, dyrep_max_adjust_epochs=100, dyrep_recal_bn_iters=20, dyrep_recal_bn_every_epoch=False, edgenn_config='', opt_betas=None, exp_dir='experiments/efficient_vmamba_tiny', distributed=True, device='cuda:0', world_size=16, rank=0)
24-02-26 23:13:43 INFO Model timm_efficient_vssm_tiny created, params: 6.494 M, FLOPs: 0.000 G
24-02-26 23:13:44 INFO DistributedDataParallel(
  (module): EfficientVSSM(
    (patch_embed): Sequential(
      (0): Conv2d(3, 48, kernel_size=(4, 4), stride=(4, 4))
      (1): Permute()
      (2): LayerNorm((48,), eps=1e-05, elementwise_affine=True)
    )
    (layers): ModuleList(
      (0): Sequential(
        (blocks): Sequential(
          (0): VSSBlock(
            (norm): LayerNorm((48,), eps=1e-05, elementwise_affine=True)
            (op): SS2D(
              (out_norm): LayerNorm((96,), eps=1e-05, elementwise_affine=True)
              (in_proj): Linear(in_features=48, out_features=192, bias=False)
              (act): SiLU()
              (conv2d): Conv2d(96, 96, kernel_size=(3, 3), stride=(1, 1), padding=(1, 1), groups=96)
              (out_proj): Linear(in_features=96, out_features=48, bias=False)
              (dropout): Identity()
            )
            (conv_branch): Sequential(
              (0): Conv2d(48, 48, kernel_size=(3, 3), stride=(1, 1), padding=(1, 1), groups=48)
              (1): BatchNorm2d(48, eps=1e-05, momentum=0.1, affine=True, track_running_stats=True)
              (2): GELU(approximate='none')
              (3): Conv2d(48, 48, kernel_size=(1, 1), stride=(1, 1))
            )
            (se): BiAttn(
              (norm): LayerNorm((48,), eps=1e-05, elementwise_affine=True)
              (global_reduce): Linear(in_features=48, out_features=6, bias=True)
              (act_fn): GELU(approximate='none')
              (channel_select): Linear(in_features=6, out_features=48, bias=True)
              (gate_fn): Sigmoid()
            )
            (drop_path): timm.DropPath(0.0)
          )
          (1): VSSBlock(
            (norm): LayerNorm((48,), eps=1e-05, elementwise_affine=True)
            (op): SS2D(
              (out_norm): LayerNorm((96,), eps=1e-05, elementwise_affine=True)
              (in_proj): Linear(in_features=48, out_features=192, bias=False)
              (act): SiLU()
              (conv2d): Conv2d(96, 96, kernel_size=(3, 3), stride=(1, 1), padding=(1, 1), groups=96)
              (out_proj): Linear(in_features=96, out_features=48, bias=False)
              (dropout): Identity()
            )
            (conv_branch): Sequential(
              (0): Conv2d(48, 48, kernel_size=(3, 3), stride=(1, 1), padding=(1, 1), groups=48)
              (1): BatchNorm2d(48, eps=1e-05, momentum=0.1, affine=True, track_running_stats=True)
              (2): GELU(approximate='none')
              (3): Conv2d(48, 48, kernel_size=(1, 1), stride=(1, 1))
            )
            (se): BiAttn(
              (norm): LayerNorm((48,), eps=1e-05, elementwise_affine=True)
              (global_reduce): Linear(in_features=48, out_features=6, bias=True)
              (act_fn): GELU(approximate='none')
              (channel_select): Linear(in_features=6, out_features=48, bias=True)
              (gate_fn): Sigmoid()
            )
            (drop_path): timm.DropPath(0.011111111380159855)
          )
        )
        (downsample): PatchMerging2D(
          (reduction): Linear(in_features=192, out_features=96, bias=False)
          (norm): LayerNorm((192,), eps=1e-05, elementwise_affine=True)
        )
      )
      (1): Sequential(
        (blocks): Sequential(
          (0): VSSBlock(
            (norm): LayerNorm((96,), eps=1e-05, elementwise_affine=True)
            (op): SS2D(
              (out_norm): LayerNorm((192,), eps=1e-05, elementwise_affine=True)
              (in_proj): Linear(in_features=96, out_features=384, bias=False)
              (act): SiLU()
              (conv2d): Conv2d(192, 192, kernel_size=(3, 3), stride=(1, 1), padding=(1, 1), groups=192)
              (out_proj): Linear(in_features=192, out_features=96, bias=False)
              (dropout): Identity()
            )
            (conv_branch): Sequential(
              (0): Conv2d(96, 96, kernel_size=(3, 3), stride=(1, 1), padding=(1, 1), groups=96)
              (1): BatchNorm2d(96, eps=1e-05, momentum=0.1, affine=True, track_running_stats=True)
              (2): GELU(approximate='none')
              (3): Conv2d(96, 96, kernel_size=(1, 1), stride=(1, 1))
            )
            (se): BiAttn(
              (norm): LayerNorm((96,), eps=1e-05, elementwise_affine=True)
              (global_reduce): Linear(in_features=96, out_features=12, bias=True)
              (act_fn): GELU(approximate='none')
              (channel_select): Linear(in_features=12, out_features=96, bias=True)
              (gate_fn): Sigmoid()
            )
            (drop_path): timm.DropPath(0.02222222276031971)
          )
          (1): VSSBlock(
            (norm): LayerNorm((96,), eps=1e-05, elementwise_affine=True)
            (op): SS2D(
              (out_norm): LayerNorm((192,), eps=1e-05, elementwise_affine=True)
              (in_proj): Linear(in_features=96, out_features=384, bias=False)
              (act): SiLU()
              (conv2d): Conv2d(192, 192, kernel_size=(3, 3), stride=(1, 1), padding=(1, 1), groups=192)
              (out_proj): Linear(in_features=192, out_features=96, bias=False)
              (dropout): Identity()
            )
            (conv_branch): Sequential(
              (0): Conv2d(96, 96, kernel_size=(3, 3), stride=(1, 1), padding=(1, 1), groups=96)
              (1): BatchNorm2d(96, eps=1e-05, momentum=0.1, affine=True, track_running_stats=True)
              (2): GELU(approximate='none')
              (3): Conv2d(96, 96, kernel_size=(1, 1), stride=(1, 1))
            )
            (se): BiAttn(
              (norm): LayerNorm((96,), eps=1e-05, elementwise_affine=True)
              (global_reduce): Linear(in_features=96, out_features=12, bias=True)
              (act_fn): GELU(approximate='none')
              (channel_select): Linear(in_features=12, out_features=96, bias=True)
              (gate_fn): Sigmoid()
            )
            (drop_path): timm.DropPath(0.03333333507180214)
          )
        )
        (downsample): PatchMerging2D(
          (reduction): Linear(in_features=384, out_features=192, bias=False)
          (norm): LayerNorm((384,), eps=1e-05, elementwise_affine=True)
        )
      )
      (2): Sequential(
        (0): Permute()
        (1): InvertedResidual(
          (conv_pw): Sequential(
            (0): Conv2d(192, 768, kernel_size=(1, 1), stride=(1, 1), bias=False)
            (1): BatchNorm2d(768, eps=1e-05, momentum=0.1, affine=True, track_running_stats=True)
            (2): ReLU(inplace=True)
          )
          (conv_dw): Sequential(
            (0): Conv2d(768, 768, kernel_size=(3, 3), stride=(1, 1), padding=(1, 1), groups=768, bias=False)
            (1): BatchNorm2d(768, eps=1e-05, momentum=0.1, affine=True, track_running_stats=True)
            (2): ReLU(inplace=True)
          )
          (se): SqueezeExcite(
            (avgp): AdaptiveAvgPool2d(output_size=1)
            (conv_reduce): Conv2d(768, 96, kernel_size=(1, 1), stride=(1, 1))
            (act_fn): ReLU(inplace=True)
            (conv_expand): Conv2d(96, 768, kernel_size=(1, 1), stride=(1, 1))
            (gate_fn): Sigmoid()
          )
          (conv_pw2): Sequential(
            (0): Conv2d(768, 192, kernel_size=(1, 1), stride=(1, 1), bias=False)
            (1): BatchNorm2d(192, eps=1e-05, momentum=0.1, affine=True, track_running_stats=True)
          )
        )
        (2): InvertedResidual(
          (conv_pw): Sequential(
            (0): Conv2d(192, 768, kernel_size=(1, 1), stride=(1, 1), bias=False)
            (1): BatchNorm2d(768, eps=1e-05, momentum=0.1, affine=True, track_running_stats=True)
            (2): ReLU(inplace=True)
          )
          (conv_dw): Sequential(
            (0): Conv2d(768, 768, kernel_size=(3, 3), stride=(1, 1), padding=(1, 1), groups=768, bias=False)
            (1): BatchNorm2d(768, eps=1e-05, momentum=0.1, affine=True, track_running_stats=True)
            (2): ReLU(inplace=True)
          )
          (se): SqueezeExcite(
            (avgp): AdaptiveAvgPool2d(output_size=1)
            (conv_reduce): Conv2d(768, 96, kernel_size=(1, 1), stride=(1, 1))
            (act_fn): ReLU(inplace=True)
            (conv_expand): Conv2d(96, 768, kernel_size=(1, 1), stride=(1, 1))
            (gate_fn): Sigmoid()
          )
          (conv_pw2): Sequential(
            (0): Conv2d(768, 192, kernel_size=(1, 1), stride=(1, 1), bias=False)
            (1): BatchNorm2d(192, eps=1e-05, momentum=0.1, affine=True, track_running_stats=True)
          )
        )
        (3): InvertedResidual(
          (conv_pw): Sequential(
            (0): Conv2d(192, 768, kernel_size=(1, 1), stride=(1, 1), bias=False)
            (1): BatchNorm2d(768, eps=1e-05, momentum=0.1, affine=True, track_running_stats=True)
            (2): ReLU(inplace=True)
          )
          (conv_dw): Sequential(
            (0): Conv2d(768, 768, kernel_size=(3, 3), stride=(1, 1), padding=(1, 1), groups=768, bias=False)
            (1): BatchNorm2d(768, eps=1e-05, momentum=0.1, affine=True, track_running_stats=True)
            (2): ReLU(inplace=True)
          )
          (se): SqueezeExcite(
            (avgp): AdaptiveAvgPool2d(output_size=1)
            (conv_reduce): Conv2d(768, 96, kernel_size=(1, 1), stride=(1, 1))
            (act_fn): ReLU(inplace=True)
            (conv_expand): Conv2d(96, 768, kernel_size=(1, 1), stride=(1, 1))
            (gate_fn): Sigmoid()
          )
          (conv_pw2): Sequential(
            (0): Conv2d(768, 192, kernel_size=(1, 1), stride=(1, 1), bias=False)
            (1): BatchNorm2d(192, eps=1e-05, momentum=0.1, affine=True, track_running_stats=True)
          )
        )
        (4): InvertedResidual(
          (conv_pw): Sequential(
            (0): Conv2d(192, 768, kernel_size=(1, 1), stride=(1, 1), bias=False)
            (1): BatchNorm2d(768, eps=1e-05, momentum=0.1, affine=True, track_running_stats=True)
            (2): ReLU(inplace=True)
          )
          (conv_dw): Sequential(
            (0): Conv2d(768, 768, kernel_size=(3, 3), stride=(1, 1), padding=(1, 1), groups=768, bias=False)
            (1): BatchNorm2d(768, eps=1e-05, momentum=0.1, affine=True, track_running_stats=True)
            (2): ReLU(inplace=True)
          )
          (se): SqueezeExcite(
            (avgp): AdaptiveAvgPool2d(output_size=1)
            (conv_reduce): Conv2d(768, 96, kernel_size=(1, 1), stride=(1, 1))
            (act_fn): ReLU(inplace=True)
            (conv_expand): Conv2d(96, 768, kernel_size=(1, 1), stride=(1, 1))
            (gate_fn): Sigmoid()
          )
          (conv_pw2): Sequential(
            (0): Conv2d(768, 192, kernel_size=(1, 1), stride=(1, 1), bias=False)
            (1): BatchNorm2d(192, eps=1e-05, momentum=0.1, affine=True, track_running_stats=True)
          )
        )
        (5): Permute()
        (6): PatchMerging2D(
          (reduction): Linear(in_features=768, out_features=384, bias=False)
          (norm): LayerNorm((768,), eps=1e-05, elementwise_affine=True)
        )
      )
      (3): Sequential(
        (0): Permute()
        (1): InvertedResidual(
          (conv_pw): Sequential(
            (0): Conv2d(384, 1536, kernel_size=(1, 1), stride=(1, 1), bias=False)
            (1): BatchNorm2d(1536, eps=1e-05, momentum=0.1, affine=True, track_running_stats=True)
            (2): ReLU(inplace=True)
          )
          (conv_dw): Sequential(
            (0): Conv2d(1536, 1536, kernel_size=(3, 3), stride=(1, 1), padding=(1, 1), groups=1536, bias=False)
            (1): BatchNorm2d(1536, eps=1e-05, momentum=0.1, affine=True, track_running_stats=True)
            (2): ReLU(inplace=True)
          )
          (se): SqueezeExcite(
            (avgp): AdaptiveAvgPool2d(output_size=1)
            (conv_reduce): Conv2d(1536, 192, kernel_size=(1, 1), stride=(1, 1))
            (act_fn): ReLU(inplace=True)
            (conv_expand): Conv2d(192, 1536, kernel_size=(1, 1), stride=(1, 1))
            (gate_fn): Sigmoid()
          )
          (conv_pw2): Sequential(
            (0): Conv2d(1536, 384, kernel_size=(1, 1), stride=(1, 1), bias=False)
            (1): BatchNorm2d(384, eps=1e-05, momentum=0.1, affine=True, track_running_stats=True)
          )
        )
        (2): InvertedResidual(
          (conv_pw): Sequential(
            (0): Conv2d(384, 1536, kernel_size=(1, 1), stride=(1, 1), bias=False)
            (1): BatchNorm2d(1536, eps=1e-05, momentum=0.1, affine=True, track_running_stats=True)
            (2): ReLU(inplace=True)
          )
          (conv_dw): Sequential(
            (0): Conv2d(1536, 1536, kernel_size=(3, 3), stride=(1, 1), padding=(1, 1), groups=1536, bias=False)
            (1): BatchNorm2d(1536, eps=1e-05, momentum=0.1, affine=True, track_running_stats=True)
            (2): ReLU(inplace=True)
          )
          (se): SqueezeExcite(
            (avgp): AdaptiveAvgPool2d(output_size=1)
            (conv_reduce): Conv2d(1536, 192, kernel_size=(1, 1), stride=(1, 1))
            (act_fn): ReLU(inplace=True)
            (conv_expand): Conv2d(192, 1536, kernel_size=(1, 1), stride=(1, 1))
            (gate_fn): Sigmoid()
          )
          (conv_pw2): Sequential(
            (0): Conv2d(1536, 384, kernel_size=(1, 1), stride=(1, 1), bias=False)
            (1): BatchNorm2d(384, eps=1e-05, momentum=0.1, affine=True, track_running_stats=True)
          )
        )
        (3): Permute()
        (4): Identity()
      )
    )
    (classifier): Sequential(
      (norm): LayerNorm((384,), eps=1e-05, elementwise_affine=True)
      (permute): Permute()
      (avgpool): AdaptiveAvgPool2d(output_size=1)
      (flatten): Flatten(start_dim=1, end_dim=-1)
      (head): Linear(in_features=384, out_features=1000, bias=True)
    )
  )
)
24-02-26 23:14:13 INFO Train: 0 [   0/625] Loss: 6.912 (6.912) LR: 1.000e-07 Mem: 2417 Util: 77% Time: 29.35s (29.35s) Data: 21.69s
24-02-26 23:14:13 INFO Reducer buckets have been rebuilt in this iteration.
24-02-26 23:14:30 INFO Train: 0 [  50/625] Loss: 6.913 (6.912) LR: 1.000e-07 Mem: 9029 Util: 81% Time: 0.33s (0.90s) Data: 0.02s
24-02-26 23:14:53 INFO Train: 0 [ 100/625] Loss: 6.910 (6.912) LR: 1.000e-07 Mem: 9029 Util: 97% Time: 0.32s (0.68s) Data: 0.02s
…
